WaveformProcessing/models/testbeamtrained_cemc.onnx (onnx, 5812 bytes, 4 tensors)

StatefulPartitionedCall/sequential/dense_1/MatMul/ReadVariableOp:0 f4 [31, 3]
00000000: af0a 70be e235 08bf 58e1 a33c eea6 b63c
00000010: cd26 f7be aa8c 21bb bc17 33be 2330 fd3e
00000020: 571d 8a3e 249c fa3d 1685 1e3e 7828 efbd
00000030: d883 773d 39f2 30bf d060 463b a51a 053f
00000040: 64e2 403e a557 48be f454 6b3d b433 123f
00000050: 72af f1bb 1d41 813e 377f bf3e 4936 52be
00000060: cb9c a33e 5614 90be e03b eb3c 807a fcbd
00000070: 3bc0 b63e 668b 763e 748f 8dbe 0410 273d
00000080: 5dfe 1c3e f12f c8be ccf2 8c3d d6e1 c1be
00000090: 104a 0dbd f901 b33e 1c05 b53d 69b1 1abd
000000a0: e665 59be 279c 373c e05e 91bd 885f 223d
000000b0: 7595 893e 8286 96be 6460 88bd 3e6e 033e
000000c0: ed34 83bd 1a0b a93d 8f0d d03e 78ee 2e3e
000000d0: 2b55 26bf 41e9 15bd d782 dd3e d883 a13d
000000e0: 0c46 92bc c7bc d73e 3ff6 a43e 327c f13d
000000f0: bd4b 1abe ff1e d63e 21ff 943e 0842 6bbe
00000100: bdbc d13e cebb 7bbe 2989 4fbd 046c 5abe
00000110: ada9 8fbe 341f 0e3e 516d 523e 36bd b0be
00000120: c7ad 7abe 8b01 453e 46ba babe 210a 69be
00000130: b13e bf3e f8f8 27bd fab6 b03e b8e8 f93e
00000140: e56b dabd 6f95 993e 1504 9d3e 06db 6b3e
00000150: 65b0 153e a6fb 85be 5966 c5be dad6 9fbe
00000160: aea7 87be e110 243e 76bf c9bc a314 1640
00000170: f83f 5b3c
-0.23441575 -0.5320722 0.020004913 0.022296395 -0.4827179 -0.0024650493 -0.17489523 0.49450788
0.2697551 0.12236813 0.15480456 -0.11677641 0.06042847 -0.691196 0.0030270107 0.5199378
0.18836361 -0.19564684 0.057454064 0.5711014 -0.007375651 0.2524499 0.37401745 -0.2052852
0.3195556 -0.28140515 0.028715074 -0.123280525 0.35693535 0.24076614 -0.2764851 0.040786758
0.15331407 -0.39099076 0.06882247 -0.37867612 -0.03449446 0.34962443 0.08838865 -0.037766848
-0.21230277 0.011206663 -0.07098174 0.039641887 0.2687184 -0.29399496 -0.0665901 0.12835023
-0.06406579 0.082540706 0.40635344 0.17083156 -0.64973706 -0.0365994 0.43263885 0.07886475
-0.017855667 0.42136213 0.3221912 0.117912665 -0.15067954 0.41820523 0.29100898 -0.22974408
0.40964308 -0.2458336 -0.050667915 -0.21330267 -0.2805914 0.1387909 0.20549513 -0.34519356
-0.24480353 0.1923887 -0.3647024 -0.2275777 0.37352517 -0.04100892 0.345146 0.48810363
-0.106651105 0.2999682 0.30667177 0.2303277 0.1461807 -0.26168555 -0.38554648 -0.31218606
-0.26495117 0.16022064 -0.024627429 2.3450096 0.013381951

StatefulPartitionedCall/sequential/dense_1/BiasAdd/ReadVariableOp:0 f4 [3]
00000000: c72f 00be 81d8 7f3e 123e 283d
-0.12518226 0.24984933 0.04107482

StatefulPartitionedCall/sequential/dense/MatMul/ReadVariableOp:0 f4 [31, 31]
00000000: 34a2 6abe c9ed c83e c8bf eebd 7016 5a3d
00000010: 39aa 233c b525 8cbd 6ad2 003d ec7c 993e
00000020: a010 323c 0102 6dbe 53b9 743e 98f1 253d
00000030: a8c6 273d 3c2b 99bd f6da 76be 6a3c 2ebe
00000040: 6894 573e ba28 43be 6821 e8be 8d00 45bd
00000050: 83a8 c73e 9640 e2bd 3926 6c3d c188 68bd
00000060: 992a b5bd c0f8 22be beb1 ce3d 30ce 343d
00000070: eaa5 4b3e 99f9 c7bd 4184 1a3e 1dda 10be
00000080: 94f0 34be 897e 343e c8dc 883e df41 34bd
00000090: 470f f53d dad8 3b3e 50d4 01bd 308e 653e
000000a0: 0848 82be 34ff 5e3d a919 4ebe 588b 283d
000000b0: 7445 72bd fa3a 963e 0e10 84be e555 e23d
000000c0: 0f3b 25be 0c0b 5abd 3441 ac3b e4a7 3b3e
000000d0: 8c07 d83d 0d3b 4dbd 5929 57be eb2e c43e
000000e0: 8efa 813e 09e0 4b3e 5e39 2a3e 857c 23bd
000000f0: f969 a2bc d27f ac3e 3341 abbd 6075 3c3e
00000100: cb98 223e 7416 8ebe ed85 a3be 04f5 44bd
00000110: 382f 523e 0be7 46be 784d d53d 2d25 68be
00000120: a2c5 3fbd 994c 9ebe 7203 973e c76b 7d3e
00000130: e88a b93d e0a6 84bc e45c b13e 96e3 8fbe
00000140: e870 9ebe d6a1 373e 3685 c43c a852 b13d
00000150: 7b25 6dbe c803 7b3e 1240 3d3d 6a28 b4bd
00000160: 92a1 23be 8210 86bd 0425 e23d 8b27 f13d
00000170: 0640 073e 54cc 0a3e 21a8 e03c 646f 28be
00000180: 822a 9c3e 6e18 163e df63 c3bd fcb8 10be
00000190: 37b7 69be 70bd 2ebe 2b11 3bbe 27a1 18be
000001a0: 009e 99ba 00a8 253a 81d0 ba3e 6161 8abe
000001b0: dd8d 8fbe 7dad 403c d2a3 0ebe e101 083e
000001c0: d622 94bd 3955 bf3e e0fa 10be 0a52 b53d
000001d0: c27f 883e ee89 ca3e 7f35 07be c6c2 953e
000001e0: 8662 16be f164 403d d8cc 093e 4e87 953e
000001f0: 9d73 87be e87d c93e d799 3ebe 4c64 d53d
00000200: b282 eebd a358 8ebe a1d5 8a3e 30a9 253d
00000210: 3848 833e 201d 88bc 05d8 c93d 003d 7d3c
00000220: 9c1f 30be 7148 823e e0ad a93d 1910 0abe
00000230: e44a 0a3d a496 2a3e 656a 25be 44fe 4a3e
00000240: ff8f 833d b85b a4bd 2849 1cbd e0d1 4c3e
00000250: 279f d83d bbe4 33be 5859 cc3c 5213 3abe
00000260: dbe1 70bc e3d3 5bbd 7c94 a93e 0f53 34bd
00000270: 0b62 d63d d770 8d3b 0044 793c ce5c 04be
00000280: 3ee9 0abe 3395 133d c5ce 98be 22c7 0a3e
00000290: e2f3 a1bd 758c a0be e64c 953e 00b8 b13a
000002a0: 38eb 3d3e f438 6a3e e4ff 0f3e f074 7c3e
000002b0: 20c8 80be 9587 d4be 77ac adbe 5b5d 473e
000002c0: 6c97 003e 7f58 00be 9ecb 9e3c 153c 4dbc
000002d0: 6835 6fbd c454 913e 31da 29be dc12 e93d
000002e0: c972 ab3d cc3c d63e 5faf 253e 835e 983d
000002f0: 2cd3 b53e b089 de3c f785 c4be 0ed7 8bbe
00000300: ec88 403e 78fe 5f3d f6dd d5bd 6011 79bc
00000310: 0233 87be f0ab ffbc 28b7 10be d41d 663e
00000320: 3b39 48be 9c9b eabd eeee 50be eaf4 54bc
00000330: 1459 50bc 2098 53be 216e 413e 0b21 34be
00000340: 5ef9 4abd 4170 b93d 9b43 b6bd 06e7 a8bd
00000350: aa7a 1fbe 740c e93d 1254 1dbe 977f bbbe
00000360: 53cf 043f c9c6 a1be 4376 873e 98b9 ef3d
00000370: b862 32bd 1570 efbe a532 103e f40f 4ebe
00000380: 1c66 a6bd 9109 99be ee77 2a3e 5a3d 43be
00000390: 221d b9bd 42a2 80be 171a 86be c618 5abe
000003a0: 4821 8a3d 0008 e03d 7374 f4be 05ff e93d
000003b0: 4886 4f3e cc25 97bb e8cd 54bd 20f6 a9bd
000003c0: a26a 7d3c 71c7 f53d 7af3 9c3e 723a 0f3e
000003d0: 9d1a 49be bce3 893e 21d7 3dbe 72a8 abbc
000003e0: 679b 6fbd d658 8d3e 0c42 2b3d 14f0 fbbd
000003f0: fc63 f5be c9e1 80bd dd0e 8cbf 00db 8b3c
-0.22913438 0.39243916 -0.11657673 0.053244054 0.009989315 -0.068431295 0.031450666 0.2997812
0.0108682215 -0.23145296 0.2389882 0.040513605 0.040960938 -0.074789494 -0.24106964 -0.17015234
0.21052706 -0.19058505 -0.45337987 -0.04809623 0.38995752 -0.11047475 0.05765364 -0.056771044
-0.088460155 -0.15915203 0.100924954 0.04414195 0.1988751 -0.09764404 0.15089513 -0.14145704
-0.17669898 0.17626394 0.26730943 -0.044008132 0.119658045 0.18344441 -0.031696618 0.22417521
-0.2544558 0.0544426 -0.20126976 0.041148514 -0.059148267 0.2934187 -0.257935 0.11051539
-0.1613581 -0.05323319 0.0052567963 0.18325764 0.105483145 -0.050105143 -0.21011867 0.38317046
0.2538647 0.19909681 0.16623446 -0.039913673 -0.019825922 0.3369127 -0.08362045 0.1840415
0.15878598 -0.27751505 -0.31938115 -0.048085228 0.20525825 -0.19424073 0.104151666 -0.22670431
-0.046819337 -0.30917814 0.29494816 0.24748145 0.090596974 -0.016192853 0.34641182 -0.28103322
-0.30945516 0.1793283 0.023989301 0.086583436 -0.23158829 0.24513161 0.04620368 -0.08796771
-0.15979603 -0.06546117 0.110422164 0.1177512 0.13208017 0.13554507 0.02742392 -0.16448742
0.3050118 0.14657757 -0.09540533 -0.14133066 -0.22823797 -0.17064452 -0.18268268 -0.14905225
-0.0011720061 0.00063192844 0.364872 -0.2702742 -0.2803792 0.011760113 -0.1392968 0.13281967
-0.07233207 0.37369707 -0.14158201 0.08853538 0.2665997 0.39558357 -0.13204001 0.29250163
-0.14686021 0.046971265 0.13457048 0.29204792 -0.26455393 0.3935387 -0.18613373 0.10419521
-0.11646022 -0.27802 0.2711611 0.040444553 0.25641036 -0.01661545 0.098556556 0.015456438
-0.17199558 0.25445893 0.08285117 -0.13482703 0.033762828 0.16659027 -0.16153868 0.19823557
0.064239495 -0.080253065 -0.038155705 0.20001936 0.10577231 -0.17567722 0.024944946 -0.18171433
-0.014702286 -0.053668868 0.33121097 -0.044024523 0.10467919 0.00431643 0.015213966 -0.12926027
-0.13565537 0.03603096 -0.29845253 0.13552526 -0.07907845 -0.3135716 0.2916023 0.0013558865
0.1854676 0.22873288 0.14062458 0.24653983 -0.25152683 -0.4150969 -0.33920643 0.19469206
0.12557763 -0.12533759 0.019384202 -0.012526532 -0.05840054 0.28384984 -0.1658714 0.1138055
0.08371503 0.4184326 0.1618018 0.07439902 0.35512674 0.027165264 -0.38383457 -0.2731251
0.18802232 0.05468604 -0.10442726 -0.015201896 -0.26406103 -0.031209916 -0.14132369 0.22472316
-0.19553082 -0.114554614 -0.20403644 -0.012997845 -0.01271655 -0.206635 0.18889667 -0.1759073
-0.04955422 0.09054614 -0.088996135 -0.08247189 -0.15574136 0.11379328 -0.15364102 -0.3662078
0.5187885 -0.31596974 0.26457414 0.11705321 -0.043551177 -0.467652 0.1408182 -0.20123273
-0.081249446 -0.2989011 0.16647312 -0.19066373 -0.0903876 -0.25123793 -0.2619178 -0.21298513
0.06744629 0.10939026 -0.47745094 0.11425594 0.20266068 -0.00461266 -0.05195418 -0.08298898
0.015467318 0.12000931 0.30654508 0.13987139 -0.19639058 0.2693156 -0.18539096 -0.020954344
-0.058497813 0.2760684 0.041811034 -0.12301651 -0.47927845 -0.06293065 -1.0942036 0.0170722

StatefulPartitionedCall/sequential/dense/BiasAdd/ReadVariableOp:0 f4 [31]
00000000: 15c1 a3be b476 1a3c e0eb 993e 0000 0000
00000010: e903 c1be 9e02 11bd 045d 733e 0000 0000
00000020: 0000 0000 0000 0000 63e3 0ebd 0000 0000
00000030: 0000 0000 c682 59bb 0000 0000 0000 0000
00000040: 45c8 633e 9cb6 febe f074 52be d90c 943d
00000050: 4908 9a3e 0000 0000 0e22 3ebd bafc 0c3e
00000060: 339a 9d3e 0000 0000 55f2 203e 0000 0000
00000070: 4b0c e8bc 9df6 7ebd 9b6a a63e
-0.31983247 0.009427715 0.3006277 0.0 -0.37698296 -0.035402887 0.23765951 0.0
0.0 0.0 -0.03488482 0.0 0.0 -0.003318952 0.0 0.0
0.22244366 -0.49748695 -0.2055242 0.07229013 0.30084446 0.0 -0.046419196 0.13768283
0.30781707 0.0 0.15717442 0.0 -0.028326174 -0.062246908 0.3250321
